open ai gym/weights.npy (npy, 928 bytes, 1 tensors)

array f8 [10, 10]
0.31600005922916685 0.5565708103974932 -0.35055942602759305 -0.5033692456167939 0.11027933129175517 -0.18354898201630732 0.7320800289065833 0.27491008294684616
-0.08189363591439208 -0.20692864128556657 0.11148130062147296 0.8109570590809183 0.7740594748763122 -0.5390198073585251 -0.517836063462483 -0.5100135153218573
-0.5625733515830666 -0.4934717795643822 -0.03287975392977426 -0.19600657679197525 0.11786468729088187 0.34281100826223304 0.019509277868036714 -0.19478700948507244
0.052804596971526535 -0.6618176365260516 0.5750531986791092 -0.7182045800908119 0.8636177480996046 -0.9904448157834073 0.1749152209929059 0.6384186319696903
0.3316913657325447 -0.15917092604365268 -0.007485467669383852 0.06221280227326835 0.7972504061474995 -0.2909990649138144 0.03495383281925355 0.04122547626671026
0.18916200441258083 -0.15907351106681783 -1.2446529765555907 -0.5528823684561318 0.32735986369788994 0.5760947101605989 0.6967547442896482 -0.22503120178655567
-0.9964206877868974 -0.09492061911546591 -0.07373999664830613 -0.12613331598345529 -0.009555289123603358 0.2746207105305554 0.2590597770591984 0.5014220899677228
-0.8739043831773358 -0.41615550658233663 -0.6622842696976334 -0.7646248524911813 0.03780463330820811 0.24986944637223563 0.4129234006099204 0.7365234946799831
0.5385141198040531 0.21348375623403062 0.4012452399499142 -0.1643411632801634 -0.7988227131362847 0.43264085717277245 0.0761650593416751 0.41934927653890686
0.6606176917640456 0.6479488593008836 0.3511239092399868 0.7479583129182605 -0.21663454917214675 -0.38723971194562057 -0.13286228006455827 0.5462035575629657
0.19199167872549264 0.11788349128949882 -0.7189393038325603 -0.35554600642675854 0.2947053950983436 0.15718289484351625 -0.831268229160548 -0.20822203860127675
0.26799059419099724 -0.7198336097889759 0.20586292779305737 0.611008583655111 0.09831103962632251 -0.3846460342110146 -0.07431487105298759 0.6238858621191926
-0.7149713550645064 -0.26667494384900403 -0.10162360411613852 0.5364699483429238
00000000: ea17 fb4f 5839 d43f 2b18 9296 6dcf e13f
00000010: 6cf4 85cd 906f d6bf f18f f7d1 991b e0bf
00000020: 81a5 5229 443b bc3f 5cb0 7c75 887e c7bf
00000030: 1dac c618 336d e73f 023b e675 2098 d13f
00000040: 74ba 0038 fbf6 b4bf 45af 7641 a37c cabf
00000050: bee6 48dc 098a bc3f f2cf e637 5cf3 e93f
00000060: 1316 3860 18c5 e83f e408 9077 a63f e1bf
00000070: 0658 a8ef 1c92 e0bf 7369 1add 0752 e0bf
00000080: eccf 54d4 9900 e2bf 9d96 aea8 0a95 dfbf
00000090: 9f66 a877 9dd5 a0bf 52ac 8f56 be16 c9bf
000000a0: ba81 4451 612c be3f 237c 4c95 9df0 d53f
000000b0: 67ad a579 3dfa 933f 8c46 b6dd c7ee c8bf
000000c0: 0470 2442 3409 ab3f f973 192e 9c2d e5bf
000000d0: d02e 39f7 d566 e23f 787a ea2b 88fb e6bf
000000e0: aca7 0ab0 c1a2 eb3f 110a 8953 b9b1 efbf
000000f0: b85a de38 9f63 c63f aef0 2ee9 ec6d e43f
00000100: 6df5 0b6c 6e3a d53f 586f ea80 b65f c4bf
00000110: 0343 5ded 14a9 7ebf b6f9 4f3e 5bda af3f
00000120: 0f0a a448 1383 e93f a52b be8a ba9f d2bf
00000130: 1d37 a801 78e5 a13f f2b3 a770 811b a53f
00000140: 1986 4ce7 7536 c83f 6a8f d853 855c c4bf
00000150: 19ce 523d 19ea f3bf 41bb 615d 36b1 e1bf
00000160: c6bf 26c9 76f3 d43f 563a 712c 5e6f e23f
00000170: fad1 019b d04b e63f d85c 208a d2cd ccbf
00000180: 1948 63a3 ade2 efbf d126 d1ba b74c b8bf
00000190: d2f9 02da 9fe0 b2bf 72e0 8af1 2225 c0bf
000001a0: b84e 5132 b991 83bf f91c a2be 6293 d13f
000001b0: 6769 8b75 6f94 d03f 27e8 bc56 a60b e03f
000001c0: 997c 3253 06f7 ebbf 9d92 b4b4 4aa2 dabf
000001d0: e635 e0c7 6e31 e5bf 0112 e589 ce77 e8bf
000001e0: 895d 64ff 205b a33f c41c 38d6 b8fb cf3f
000001f0: 8eda 5745 566d da3f 675b 4cb8 9991 e73f
00000200: a8c3 9ff6 813b e13f 914e a08b 6f53 cb3f
00000210: ebac d083 00ae d93f 0e63 d698 2109 c5bf
00000220: 591d 87a6 f48f e9bf 181c 1e47 63b0 db3f
00000230: bb6b f8a6 8d7f b33f d07e 1559 9ed6 da3f
00000240: 8223 a9b6 c723 e53f 8bb0 053f ffbb e43f
00000250: f2e1 c16a d078 d63f 1e2b 9845 46ef e73f
00000260: bc64 f04f aeba cbbf ac35 a112 89c8 d8bf
00000270: 19e8 df95 a101 c1bf 2723 16e2 7f7a e13f
00000280: e574 9dee 2e93 c83f 80a2 d3cb 9c2d be3f
00000290: a5a2 b8ff 8c01 e7bf a7e2 7409 44c1 d6bf
000002a0: bcbc 7904 74dc d23f 1df8 6bb0 911e c43f
000002b0: 3059 4ed4 bf99 eabf d8a9 0c0f 05a7 cabf
000002c0: 74e6 6b05 c226 d13f 6e5e 937e e008 e7bf
000002d0: 243d 2a67 b759 ca3f a9f7 8bdf 618d e33f
000002e0: 82e3 078c e92a b93f e23b 5e66 0a9e d8bf
000002f0: 166f c7a4 4c06 b3bf 69a3 c77b dff6 e33f
00000300: 0386 729b 0be1 e6bf 7a9f 9fc8 3311 d1bf
00000310: 0433 2e28 0104 babf ea6d 6d06 c32a e13f
